trained_parameters/params_0a329def-6173-4f71-a49b-bd3fac1de5d4.pt (torch, 589649 bytes, 27 tensors)

fc1.weight f4 [128, 38]
000000 1d 1e 35 3d 78 86 35 be 87 6e ec 3c 9e 06 3d 3e
       0.04421817 -0.17727077 0.028861297 0.18459556
000010 63 c1 d8 3c 7b e8 62 3d 9e 32 17 3e 57 b6 c0 bc
       0.026459401 0.055397492 0.14765403 -0.023524446
000020 89 ff fe 3d 33 85 20 3e 0f 6f 03 3e 27 3c 28 3e
       0.12451083 0.15675811 0.12835334 0.16429196
000030 8b 67 1c 3e 50 57 7f 3c fa e6 f7 bc 7e ae 08 3d
       0.15273874 0.015584782 -0.030261505 0.033369534
000040 1a ae 92 bd 08 6c 00 be 19 e0 9e 3c 4b d9 10 3d
       -0.071621135 -0.1254121 0.019393967 0.035363477
000050 64 a9 0f 3e a2 86 d8 bd 62 25 1b bd 5f 9f 77 bc
       0.14029461 -0.10572554 -0.037877448 -0.015113681
000060 8f 8d cf bd 7a 0e 3c be 0a 66 18 be 3e af 12 3e
       -0.10134422 -0.18364897 -0.14882675 0.14324662
000070 cd e8 5a 3c fe 74 85 bd 62 13 7e 3d b9 1d 0f be
       0.013361168 -0.06516455 0.062030204 -0.13976182
000080 a2 8b 9f 3b b3 21 ba 3d f1 35 b0 bd eb b1 45 3d
       0.0048689405 0.09088459 -0.086040385 0.04826538
000090 d6 de 1a be fe 73 a3 bd ef 80 f4 ba d3 c1 c0 3b
       -0.15124068 -0.07981108 -0.0018654148 0.0058824806
0000a0 dd df 16 be 12 28 33 3e 82 5e 1f be 28 e8 8f 3e
       -0.14733835 0.17495754 -0.15563396 0.2810681
0000b0 52 e9 d3 bd ba 88 1d 3e 50 d6 a1 bc b7 4c 1b 3e
       -0.10347237 0.15384188 -0.019755512 0.15165983
0000c0 8e c8 95 bd ff 48 04 be 16 2d c2 3d 9b 4c 30 3e
       -0.073136434 -0.12918471 0.09481256 0.17216723
0000d0 39 f5 8e 3d a9 1f 06 3e 09 ae 94 3d 19 3d 28 bd
       0.06980366 0.13098015 0.07259757 -0.041073892
0000e0 f9 30 d6 3c fa 9e 30 be 0f 79 09 be 8f 11 80 bd
       0.026146399 -0.17248145 -0.13425086 -0.06253349
0000f0 3d ff aa bd bd 5c be 3d 8a 10 30 be 0a c6 b5 bd
       -0.08349464 0.09295032 -0.17193809 -0.088756636
000100 3d ca 9b 3d 20 0c ff 3d 58 be 45 be fe 81 04 3b
       0.07606933 0.124534845 -0.19310892 0.0020219083
000110 2c 1c 89 3d 1c c0 7a bd 1a c6 70 bd ef 66 f7 bd
       0.066948265 -0.061218366 -0.058782674 -0.1208018
000120 ad a5 b8 bd bf ec ba 3d 59 5d cc bd b0 8d 1a be
       -0.09015975 0.09127187 -0.09978742 -0.15093112
000130 b1 9a 84 bc 84 c3 25 3e a4 9b 40 bd 73 03 99 be
       -0.016187044 0.16187865 -0.04702343 -0.29885444
000140 9e 8c 23 bd d0 ac 06 3e 68 18 36 be ac 58 86 be
       -0.039929025 0.1315186 -0.17782748 -0.26239526
000150 2c b5 2c be e6 27 1f be 68 b7 9f 3d 1b 0a b7 bd
       -0.16865987 -0.15542564 0.07798654 -0.08937474
000160 5d 4b b8 bd 0c 12 0d 3e e6 f0 a2 3c df 3c 1b be
       -0.089987494 0.13776416 0.01989026 -0.15159939
000170 4f 32 40 be b8 ca 36 be 8f 03 74 3d e6 ac 97 bd
       -0.18769191 -0.17850769 0.059573706 -0.07406025
000180 84 64 c2 bd e2 c1 0d be f3 a9 c2 bd d9 74 12 3e
       -0.09491828 -0.13843492 -0.095050715 0.14302386
000190 7e fd e5 3d d9 b5 6a 3c e9 59 0e 3e 20 9f 46 3d
       0.112299904 0.014325582 0.13901486 0.048491597
0001a0 43 d7 01 3e 65 3d 8e bd 9a e5 5b be 93 12 8b bc
       0.12679772 -0.06945304 -0.21474305 -0.01697663
0001b0 0e ea 95 bd 3e 89 98 3d 85 5c 18 be 31 19 fd bc
       -0.07320033 0.07448052 -0.14879043 -0.030895801
0001c0 b4 d1 04 3e 70 e5 96 bd d0 7e 27 3d 9f a1 cb bd
       0.1297062 -0.073679805 0.040892422 -0.09942936
0001d0 ea 5e 26 be f8 b8 a4 bd 4d 36 65 bd 17 1d 39 3e
       -0.16247144 -0.080430925 -0.05595999 0.18077503
0001e0 2d b3 4b be e1 a4 f2 3d 92 5b c2 bc 69 e0 22 be
       -0.19892569 0.118478544 -0.023725305 -0.15905918
0001f0 54 6b 4f be 97 0f 4a 3d 84 37 24 bd d4 d0 40 bd
       -0.20255786 0.049331274 -0.040092006 -0.047074154
000200 79 bb d6 bd cd 1d b7 3b 3d 2f 9c 3d f0 2b 93 bd
       -0.10484976 0.0055882693 0.076261975 -0.07186115
000210 33 3e 12 3d 76 ac d8 bd aa cf 63 be 15 1a 36 3d
       0.03570385 -0.10579769 -0.22247186 0.044458468
000220 b3 f9 2e 3d 59 17 17 3e b8 1b e1 bd d6 e7 ff 3d
       0.0427186 0.14755 -0.10991615 0.12495391
000230 49 1c 13 3e 49 8c 9c 3d 96 13 6b 3d c6 4a 76 bd
       0.14366259 0.07643945 0.057391725 -0.060129903
000240 74 d6 c0 3c 4e 93 6e bd b1 29 f7 3b 1d 83 49 3d
       0.02353976 -0.05824595 0.007542812 0.049197305
000250 9d a5 f6 3d b7 ec ce 3d d7 a7 e4 bc 47 a7 c2 bb
       0.12043307 0.101037435 -0.027912064 -0.005940351
000260 c1 65 84 bd 96 ae 86 bd 4c 9f 21 3d 0b fd 87 bd
       -0.064647205 -0.065762684 0.039458558 -0.06640061
000270 f1 5d 8f be 21 db 81 3c 5d 2d 49 3e fa 10 d7 bd
       -0.2800136 0.01585156 0.19646211 -0.10501285
000280 f1 85 16 be 84 57 a2 bd b6 23 84 bc 59 e4 15 be
       -0.14699532 -0.079268485 -0.01613031 -0.14637889
000290 a4 2c 03 be 37 bf fd bd 4e 5f e5 bd b2 c9 5e bd
       -0.12809998 -0.12389987 -0.111998186 -0.05439157
0002a0 53 7f 1c 3d d1 ae 02 bd 74 e2 19 bd 79 18 19 be
       0.038207363 -0.031905 -0.03756948 -0.14950742
0002b0 2c e3 dc bc 24 a0 b2 bc d2 6f 04 be 99 2e 21 3e
       -0.026963793 -0.021804877 -0.12933281 0.15740432
0002c0 87 f3 bb bc c4 43 12 be 1f 4b ca bd 5f 8b 8d 3d
       -0.022943271 -0.14283663 -0.098776095 0.069113486
0002d0 26 17 35 3e 0e 1c f1 3d cc 74 e6 3d c0 80 24 3e
       0.17684612 0.11772929 0.11252746 0.16064739
0002e0 2c 40 fe bc be b5 51 be 22 51 2b bd a9 8a b5 bd
       -0.031036459 -0.20479485 -0.04182542 -0.08864338
0002f0 bf d0 c1 bd 65 42 38 3c 32 46 c2 3c b3 eb 8c 3d
       -0.09463643 0.011246298 0.023715112 0.068808936
000300 19 ed 54 be 87 e5 1c be ac cf 39 3e 23 1e 2d be
       -0.2079357 -0.15321933 0.18145627 -0.16906027
000310 1a 09 01 3c 37 22 0b 3e 4d d0 e6 bd f1 79 0b 3e
       0.007875705 0.1358727 -0.11270199 0.13620736
000320 9c 46 cf bd 88 42 a3 3d c1 14 b6 3d 25 2c e6 bd
       -0.101208895 0.07971674 0.08890677 -0.11238889
000330 95 1b 4a bd f2 3d 3f be bc 45 20 3e a7 e7 e1 3d
       -0.04934271 -0.18675974 0.15651602 0.11030512
000340 d4 f8 b3 3a 91 c1 66 3d 8b 3d 03 3e 45 95 51 3d
       0.0013730773 0.056336943 0.12816446 0.051167745
000350 98 c8 84 3c 5a 7e 2c 3b 94 3e 6c bd 5c a7 b1 3d
       0.016208932 0.0026320429 -0.057676867 0.086744994
000360 1c b9 a1 bb 49 0b 40 bc e6 89 5a 3d 9f f4 0b 3e
       -0.004935397 -0.011721441 0.053354166 0.13667534
000370 c1 79 04 3e 36 1c 0e 3e bf 54 34 be 5c 7f 93 bc
       0.1293707 0.13877949 -0.17610453 -0.018005066
000380 df 2a ae bd bb b0 83 3d 81 6a 9d bc e1 26 ad 3d
       -0.08504271 0.06430193 -0.019215824 0.08454681
000390 34 1c c1 bd f7 9c 35 3e 22 47 a8 bd e9 52 73 be
       -0.094292074 0.17735659 -0.082166925 -0.23762096
0003a0 82 11 06 3c a1 6b c1 bc be c7 b7 bc 40 7f 6e be
       0.008182885 -0.023610892 -0.022434112 -0.2329073
0003b0 b1 2c 3c 3e 73 99 ed ba 05 ff e9 bd 14 11 cf bd
       0.18376423 -0.0018127396 -0.11425594 -0.10110679
0003c0 2f 5d e7 bd 1d 50 13 bd e7 f0 30 bd d0 eb 40 bd
       -0.1129707 -0.035965074 -0.043198492 -0.04709989
0003d0 5b 1c 8b 3d 7b 63 4e 3d a2 f6 fd bd a4 2f 0c bd
       0.06792518 0.05038784 -0.12400557 -0.03422512
0003e0 e5 9a e5 3d 7e e4 19 b9 0b eb 08 be 3d 92 00 3e
       0.112111844 -0.00014676337 -0.13370912 0.12555785
0003f0 2d d0 53 3e 33 75 49 bd 31 41 8a bb a6 bb 3a bd
       0.20684882 -0.049184036 -0.004219197 -0.04558911

fc1.bias f4 [128]
000000 e5 00 4f 3e 15 c0 77 3d 2f a9 7d 3c d9 4a c6 bc
       0.20215185 0.060485918 0.015482231 -0.024205612
000010 6e 95 b0 bc f4 2e c1 bd d3 83 06 bd 02 f1 10 3d
       -0.021555629 -0.09432784 -0.03284056 0.035386093
000020 2e 3c 02 be e2 a7 cf 3d c9 df 83 3d a2 5d 19 3e
       -0.12718269 0.10139443 0.06439168 0.14977124
000030 1e 19 85 bc 6e b0 2f bd a5 4f 6d bd 9d ef 14 3e
       -0.016247328 -0.042892866 -0.057937283 0.1454453
000040 0a 7d 7f bd 1e d3 22 3e 27 f9 1c be c1 bc 9e bd
       -0.062375106 0.15900847 -0.15329419 -0.07750846
000050 ea 76 b1 3d b5 b4 fc 3d ab b3 01 3e 98 c2 57 bc
       0.08665259 0.12339155 0.12666194 -0.013168953
000060 51 7d d3 bc b9 15 26 3e df a1 e3 3d af 6d 31 bd
       -0.025816591 0.16219224 0.11114859 -0.043317493
000070 30 0d a9 3c 2c ed aa bc 3d 3a 2c be 09 a5 84 3d
       0.020636171 -0.020865045 -0.16819091 0.064767905
000080 b6 4b dc 3d 36 24 5c 3e 36 f6 4f 3e 1d 3a 00 3c
       0.10756628 0.21498188 0.20308766 0.007826355
000090 e8 fe 90 bd 98 2c 20 3e 32 03 b0 bd ce 98 1a 3e
       -0.070798695 0.15642011 -0.085943595 0.15097353
0000a0 f0 cc f3 3d a2 35 ef 3d e7 b7 d3 3a 99 c3 55 be
       0.11904323 0.116801515 0.001615283 -0.20875396
0000b0 b5 1e ef bd 67 c1 3d 3e 35 dc 21 3d e0 a4 f8 bc
       -0.11675779 0.18530808 0.039516646 -0.030352056
0000c0 dc ae be bc ce c0 08 3b 61 ea 08 be 5f 6c 17 bd
       -0.023276739 0.0020866874 -0.13370658 -0.036968585
0000d0 64 d7 ef bd 4d d5 49 3e b7 59 12 bd 5f 2e 7b 3e
       -0.117110044 0.19710274 -0.03573009 0.24529408
0000e0 1c 72 b3 bc 11 46 27 bd 43 d5 42 3e 28 12 37 bb
       -0.021904998 -0.040838305 0.19026665 -0.0027934406
0000f0 f8 59 ff bd 4c f8 15 3e d5 16 b4 bd 90 22 ab 3c
       -0.12468332 0.14645499 -0.08793417 0.020890504
000100 9f 34 8f 3d 68 76 f3 bd b7 ab 08 3e de 76 38 3e
       0.069924586 -0.118878186 0.13346754 0.18014094
000110 42 6e 1b be 5b 70 25 3e 6f 08 f9 3d 39 66 e1 3c
       -0.15178779 0.16156141 0.12159812 0.027514564
000120 47 d1 d5 3d 51 79 1d 3e 89 4c 2f bc f5 f1 09 be
       0.10440307 0.1537831 -0.0106994 -0.13471206
000130 90 b5 94 3b 85 ca 50 3d b9 20 a8 3c c0 6a 0d be
       0.0045382455 0.050974388 0.020523416 -0.13810253
000140 0c 38 13 3e 8d b0 ed bd f7 4d f6 3d ef bc 12 bd
       0.14376849 -0.1160594 0.12026589 -0.035824712
000150 3c ce 9f bd 16 b2 58 3e 17 6f 6d bd 9e 9e 38 3e
       -0.07803008 0.21161684 -0.05796727 0.18029258
000160 ea 94 19 bd ea e7 60 3d 8d 4e 02 3e 44 e7 76 3e
       -0.03749553 0.05490867 0.12725277 0.24111658
000170 ae f4 ca bd 07 c6 7e bd d4 0e 13 3e 31 00 1f be
       -0.0990995 -0.062200572 0.14361125 -0.15527417
000180 aa e4 02 bd 95 8a 8c bc ea c9 5d bd 51 0a 28 3d
       -0.031956352 -0.017155925 -0.05414764 0.041025463
000190 95 3b 0f 3e 9a 2b cb bd 89 d4 1d be 29 1b 95 bc
       0.13987572 -0.09920426 -0.15413107 -0.018201428
0001a0 28 d3 3b bd fb 12 10 3e 1f ab 80 bc 3f 31 2a 3d
       -0.04585567 0.1406974 -0.015706597 0.04155087
0001b0 bb 50 e3 3d 75 3d cf 3d 5c e0 10 be 5b e6 f5 3d
       0.110993825 0.10119144 -0.14148086 0.120068274
0001c0 e2 37 8b bd 67 4d 11 be 40 70 39 bd 2a 9a a9 3c
       -0.06797768 -0.14189683 -0.045273066 0.020703394
0001d0 89 0a 3d 3e b1 06 ad 3d 13 e3 9a bd fb 7b 29 3d
       0.1846105 0.08448542 -0.07562842 0.041378003
0001e0 36 27 f2 bd 55 c9 77 3d b8 47 1a 3e 74 7b a0 3d
       -0.11823885 0.06049474 0.15066421 0.07836047
0001f0 4e 89 e6 bd 88 1d 39 3d f1 c8 2d 3e f2 78 54 3e
       -0.112566575 0.04519418 0.16971184 0.20749262

fc2.weight f4 [128, 128]
000000 fa 82 13 3c f6 5e 95 bd 3c b4 02 3c 11 e0 97 bd
       0.009003395 -0.07293503 0.007977542 -0.07415784
000010 9b 75 d5 3c 7d 47 ab bd 7b e0 5a 3c 01 6b d1 bd
       0.026057055 -0.08363245 0.013359184 -0.102254875
000020 cb b2 7a bd 77 fd a5 bd 31 90 a6 bd 49 c3 3d bd
       -0.061205667 -0.08104985 -0.08132971 -0.046328817
000030 92 72 d8 bc f8 c1 1e bd 90 59 73 3d ac e6 a5 bd
       -0.026421819 -0.0387592 0.059411585 -0.08100638
000040 05 9e 42 3d 22 cb 89 3d c3 37 c3 bc cd c3 8e 3d
       0.04751398 0.06728198 -0.0238303 0.0697094
000050 4b ad a6 bd c8 ba 92 bd 8d 75 9e bc 84 06 98 3d
       -0.08138522 -0.07164532 -0.019343162 0.07423118
000060 85 82 91 3d ae fa 88 3d ad 8a 81 bb c6 c0 c1 bc
       0.07104973 0.06688438 -0.003953299 -0.023651492
000070 b9 14 b2 3d a5 b4 1e bd d3 25 8e bd fa eb 7f bd
       0.08695359 -0.038746495 -0.06940808 -0.062480904
000080 60 84 78 bd 85 f7 ba bb ed c5 74 bd a4 a2 a2 bb
       -0.060673118 -0.005705776 -0.05975907 -0.004963236
000090 33 95 7d 3d f9 dc fd bc b5 64 b2 bd d9 d2 63 bd
       0.061909866 -0.030989157 -0.087106146 -0.055621002
0000a0 0d cd b0 bd 29 07 86 bc e6 01 b2 3c 3d 1e 9c bd
       -0.0863286 -0.016360836 0.02172942 -0.07622955
0000b0 bf e3 0a bd b4 7f f4 3c 8a 8e 54 bd 5f e8 44 bc
       -0.0339086 0.02984605 -0.05189375 -0.012018292
0000c0 1f 33 18 bd 53 8f bb bd e9 eb 34 bd ea 77 9a bd
       -0.037158128 -0.09158196 -0.044170294 -0.07542403
0000d0 e1 7b b3 bd 46 76 84 bc d8 1b 26 3d c6 25 5e 3c
       -0.087638624 -0.016169678 0.040553898 0.013558811
0000e0 d0 e7 37 bd 34 c3 87 3d 13 cb 9a 3c 35 32 93 bd
       -0.044898808 0.06629029 0.018895661 -0.071873106
0000f0 8d b6 e0 bc f3 a8 ba bd ec 59 49 bd 44 59 24 bd
       -0.027430797 -0.09114256 -0.04915802 -0.040124193
000100 8b 02 f4 3c d4 97 71 bb 16 c7 14 bd dd f4 70 3d
       0.029786369 -0.0036864178 -0.036322676 0.05882727
000110 93 a8 43 3d 5d ab 1c 3d 3e 27 53 bd f1 a2 6f 3d
       0.047768187 0.038249362 -0.051551096 0.058505002
000120 5c 92 5d 3d b6 1e b0 3c 65 c1 c0 3b de 6e a3 bd
       0.054094657 0.02149902 0.0058824294 -0.079801306
000130 9e 62 7c bd ea 91 9e bc f8 9d 3a bd c7 c7 bf 3b
       -0.061617486 -0.019356687 -0.045560807 0.0058526727
000140 3f 41 7d bc 64 6d ff bc 80 91 b8 bd ea 79 87 3b
       -0.01545745 -0.031180091 -0.09012127 0.0041344063
000150 2f 1f 08 bd 52 52 f0 bc c8 24 0b 3d 3d d5 77 bc
       -0.033232864 -0.029336128 0.033970624 -0.015126524
000160 40 bd 85 3c 04 ab 7b bd 51 b7 b0 3c 8c c5 3d 3d
       0.016325593 -0.06144239 0.021571787 0.046330974
000170 d9 7d b1 bd bb dd 28 3d 5c c3 91 bb 2b 3b 98 3d
       -0.08666582 0.041227084 -0.0044483375 0.074331604
000180 1d 2c c5 bb e4 a9 de 3b 5b 9e 29 bc c7 0b 9d bc
       -0.0060172216 0.006795155 -0.010352696 -0.019170655
000190 3b 54 a2 3b 25 ae bc 3b c5 0e e7 bc f3 28 59 bc
       0.0049538887 0.0057580643 -0.028205285 -0.013254392
0001a0 fe bc 3e bd c9 8f 87 bd c7 0a 92 bd 48 04 58 bb
       -0.046566956 -0.06619222 -0.07130962 -0.0032961536
0001b0 b2 6f a4 bd b3 f9 86 bd cf e7 e5 bc 64 3e 9a bd
       -0.08029117 -0.06590595 -0.028064637 -0.07531431
0001c0 32 bc 98 3d 17 04 c7 bb 39 d1 f3 bc f3 99 60 bd
       0.074577704 -0.0060734856 -0.029762851 -0.054834317
0001d0 02 5b 8f ba f1 56 49 3d 53 e1 8c bd ba 31 8d bd
       -0.0010937157 0.04915518 -0.06878915 -0.0689425
0001e0 b9 4a 3a bb 18 09 90 bd c4 f6 6d 3d 49 3e 6f bd
       -0.0028425886 -0.070329845 0.058096662 -0.05840901
0001f0 8b 34 27 bd 63 7a 8b 3b 77 e3 28 bd 6d d9 26 bc
       -0.040821593 0.004256533 -0.041232552 -0.010183674
000200 c9 d2 78 3d b8 ea 0a bd b7 ad 45 bc 99 f4 8f 3d
       0.060747895 -0.03391525 -0.012065343 0.07029075
000210 55 78 80 3d d3 c1 ce bd eb 68 02 bd 8a 01 cc 3d
       0.062729515 -0.10095563 -0.03183834 0.09961231
000220 9d 2f 54 bd 2f 2e da bd 64 d7 39 bd 9c 96 8b 3c
       -0.05180322 -0.1065334 -0.045371428 0.01703959
000230 63 6c 87 bd 4a c8 7a bd 31 73 30 3a f5 d8 6b bd
       -0.0661247 -0.061226167 0.0006731032 -0.057579953
000240 c1 1b 8e 3d 21 4e 15 bd d6 cc d7 3d 5a a7 c9 3c
       0.069388874 -0.036451463 0.10537116 0.024615932
000250 10 3c f0 3c af cb 32 3d ee 9e 06 3d b3 b7 1a bd
       0.029325515 0.04365128 0.03286641 -0.037772845
000260 49 c7 5a 3d 50 b9 23 bd 2a db e7 3c 98 00 9e bd
       0.05341271 -0.03997165 0.028302748 -0.07714957
000270 51 56 88 bd 24 56 b8 3b 4a cc a3 bd ca 27 d4 bd
       -0.066570885 0.005625503 -0.079979494 -0.10359152
000280 98 06 2a bc 5f ec b8 3c 3e 83 26 bb 54 74 1c bd
       -0.010377549 0.022573648 -0.0025407816 -0.038196877
000290 7d 1a 74 3d 43 fe c3 ba 6a f2 b2 3c 7c 90 4b bc
       0.059595574 -0.0014953095 0.021844108 -0.0124245845
0002a0 ec bc 9f 3b 47 d9 b0 3d 4f 24 ec bc a4 e3 93 3d
       0.004874816 0.08635192 -0.028825907 0.072211534
0002b0 f9 79 83 3d 74 2a 95 3d 5a 67 b2 bd 74 4a 88 bd
       0.06419749 0.07283488 -0.08711119 -0.06654826
0002c0 2c 5c ac 3d d0 44 67 bd a3 c4 65 bd c4 d5 11 bd
       0.08416018 -0.05646211 -0.05609573 -0.035604253
0002d0 40 2b 4e bc 1b 22 6e bd 86 29 81 bd 01 42 a0 bb
       -0.012583554 -0.058137994 -0.06306748 -0.004890681
0002e0 3c bd d2 bc cb ee 88 bd 8a cc a7 bd 5c e5 2e ba
       -0.025725 -0.06686171 -0.081933096 -0.00066717505
0002f0 04 75 69 3d ac 98 0c 3d 10 d8 91 bd a6 98 fc 3c
       0.05699636 0.034325287 -0.07121289 0.030834507
000300 c7 58 94 3d 45 62 2e bd 58 f4 96 bd 28 42 14 bd
       0.072434954 -0.042574186 -0.073708236 -0.036195904
000310 e0 ea 00 3d 9e a1 82 3a 63 c9 38 bd 78 77 cf 3b
       0.031473994 0.0009966379 -0.045113932 0.0063313805
000320 40 6b 90 bd 14 d3 83 3c a4 57 6e bd 83 a3 c3 bc
       -0.07051706 0.01609186 -0.05818905 -0.02388168
000330 14 08 ce 3d b3 2c 62 bd 5b 66 a1 3c 03 59 fe bc
       0.100601345 -0.05521841 0.019702127 -0.031048303
000340 89 dc 9d 3d 3a c8 a8 bc 94 ea 7c 3d 22 5f 36 b9
       0.07708079 -0.020603288 0.06174715 -0.00017392312
000350 6e aa ce bc 72 9a 0f bc df e0 57 3c df 48 b2 bb
       -0.025227752 -0.00876485 0.013176172 -0.005440816
000360 bc 0a e5 bc 08 60 73 bc ff 74 03 bd 88 da 0a 3d
       -0.02795922 -0.014854439 -0.032093998 0.033899814
000370 38 2c 19 bb 43 a2 af 3c ae 70 f4 bb 4c ad fd 3c
       -0.0023372304 0.021439677 -0.0074597215 0.030966423
000380 b6 a4 05 bc 4a 29 8f 3d 50 36 a9 3d 91 f3 22 3d
       -0.008156946 0.06990297 0.082623124 0.039783064
000390 60 a3 ce 3d d8 75 25 3d 55 74 b8 3d 36 63 d4 3d
       0.10089755 0.040395588 0.090065636 0.103704855
0003a0 c0 68 95 3d ff 21 99 3c 2d 0e 99 bb 8b 39 98 bd
       0.0729537 0.018692968 -0.0046708793 -0.074328505
0003b0 bb b7 58 bd 32 7c 88 3c 27 d2 f1 3b 37 a8 91 bd
       -0.052909594 0.016660783 0.0073797884 -0.071121626
0003c0 bc e1 11 3c ed c7 25 3e 6c 87 a7 3d dd 02 72 3d
       0.008903917 0.16189547 0.081801265 0.059084762
0003d0 43 e7 a5 bd 22 99 87 3b ae a7 22 3d c8 74 32 bd
       -0.0810075 0.004138128 0.039710693 -0.043568403
0003e0 78 2b 6e 3d 05 32 19 3e e2 31 b9 3d f2 a6 46 bd
       0.058146924 0.14960487 0.090427175 -0.048499055
0003f0 47 be 00 bd c5 88 93 3d 44 d1 15 3d 24 96 13 bd
       -0.031431463 0.07203821 0.036576524 -0.036031857

fc2.bias f4 [128]
000000 f1 f6 47 bd 9c 5d 29 bd 61 9c 8a 3d c8 c0 bd bd
       -0.048819486 -0.04134904 0.06768108 -0.09265286
000010 d8 4a ac 3d f0 3d fe 3a 06 92 1b 3d 8d d0 0b 3e
       0.08412713 0.0019397121 0.037981056 0.13653775
000020 80 b2 60 bd 15 98 b7 bd f1 49 ce 3d 34 53 cf bd
       -0.05485773 -0.08964554 0.10072697 -0.101232916
000030 37 b0 23 bd b6 23 5b bd 8f 78 56 bd 05 d5 52 3c
       -0.039962973 -0.053500853 -0.052361067 0.012868171
000040 a6 0f 2d 3d b1 48 08 3d 7b 52 86 bd 78 7c 69 bd
       0.04225125 0.03327245 -0.06558701 -0.05700347
000050 f5 ac 27 3c 9e b2 ba bb 9a 40 19 3d 81 d1 08 bd
       0.010234107 -0.0056975624 0.037415124 -0.033402923
000060 96 24 97 bd 1b 17 0b 3d ca 31 4f bd 8a 03 57 bc
       -0.07380025 0.033957582 -0.050584592 -0.013123402
000070 3e 46 fc 3c 5c 2d 9d 3d d3 b4 11 bc cd 94 67 bd
       0.030795213 0.07674667 -0.0088932095 -0.05653839
000080 10 4c 87 3d 70 48 25 3d c9 8a 44 3d a5 92 40 3c
       0.06606305 0.040352285 0.04798392 0.011753713
000090 37 a1 5b 3d 4f 7a 6e bd 8b a5 5c 3d 73 cf 35 bc
       0.053620543 -0.05822211 0.05386881 -0.011096823
0000a0 d3 24 6d 3b d2 86 b1 3d 50 29 42 bd 55 45 e1 bc
       0.003618528 0.08668293 -0.04740268 -0.02749888
0000b0 4d 9b 08 bd e4 f7 b3 3d 74 24 bd bd 28 87 29 3c
       -0.03335123 0.08787516 -0.092354685 0.010347165
0000c0 83 84 8b bd 85 07 13 bd 42 d1 d4 3c f5 98 10 3e
       -0.06812384 -0.035895843 0.025978688 0.14120848
0000d0 85 85 38 bd f3 56 ad 3d fc 5d 9d bd ff 7c cc 3d
       -0.04504921 0.0846385 -0.07683942 0.099847786
0000e0 18 7b 19 3d 79 41 fe 3d dd 52 88 bd 2d f3 7b 3c
       0.037470907 0.12414832 -0.0665643 0.015377802
0000f0 ca b4 12 bd d2 d2 c1 bd a1 c5 28 3c 01 c5 cd 3d
       -0.035816945 -0.09464039 0.010301025 0.10047341
000100 f5 49 f0 3c 8d a2 34 bd c8 00 8e 3c 23 f0 90 bc
       0.02933214 -0.044100333 0.017334357 -0.017692631
000110 64 cf 7b 3d df 68 d9 bc fa 5a ec 3d f0 2f 99 3c
       0.06147708 -0.026539264 0.1154079 0.018699616
000120 1a d8 1b 3d 96 20 06 3d ef 38 c4 3c e4 70 5d 3d
       0.038047887 0.03274592 0.02395293 0.05406274
000130 17 b6 28 3e 9f e0 20 bd dd 54 de 3d ce 86 84 3d
       0.16475712 -0.039276715 0.1085603 0.064710245
000140 59 6e 6b bd c3 04 e5 3c 26 c3 f7 bc b7 98 b0 3c
       -0.057478283 0.027956372 -0.030244421 0.021557195
000150 0e ad 00 3d 42 a4 20 3d 20 58 e6 bc 2d af 0a 3d
       0.031415038 0.03921915 -0.028118193 0.033858467
000160 41 15 44 bc c9 c1 34 3c 72 77 ab bd ca 8f 40 3d
       -0.011967958 0.01103253 -0.08372392 0.047012128
000170 ad df 78 bc 05 a3 72 3c 4d 81 a7 3c e0 a3 e2 3c
       -0.015190047 0.014809375 0.020447398 0.027666032
000180 d4 1a 81 3d 78 07 2a 3d 9e f3 d0 3d ef 05 52 3c
       0.06303945 0.04151103 0.10202716 0.0128187975
000190 a9 99 ed 3d 62 dc ab bd 0d 57 aa bc 77 dd 76 3c
       0.11601574 -0.08391644 -0.020793462 0.01506745
0001a0 ef 1d a7 bb 90 46 fc bd b8 f6 ab 3d 10 9f 10 bb
       -0.005100004 -0.12318146 0.08396667 -0.0022067465
0001b0 d0 5e 94 3d 34 13 0d 3e 3e 2c f9 bc b1 ac 15 bd
       0.072446465 0.13776857 -0.030416604 -0.036541644
0001c0 b8 96 a0 3b 1f 58 01 3e 1c 23 50 3c 0a 9e 8f bd
       0.0049007796 0.12631272 0.012703683 -0.070125654
0001d0 11 ab c4 bc a3 71 a0 bd af 28 8f 3c 06 59 20 3e
       -0.024007352 -0.078341745 0.017475454 0.1565896
0001e0 fa b8 96 3c d8 1d 46 3d 9c ad 5e 3d d9 02 3f 3d
       0.01839875 0.048368305 0.054364786 0.046633575
0001f0 dd 32 b5 bd 96 88 12 3e 59 e9 a6 bd 40 99 30 3d
       -0.08847592 0.14309916 -0.08149976 0.0431149

policy1.weight f4 [5, 128]
000000 47 93 1d 3d 64 e7 c0 3d 25 3e 90 3d 2b 6c 64 bd
       0.038470533 0.09419134 0.07043103 -0.05576722
000010 57 bb 76 bc 6b a6 53 bc 69 8f 78 bc 4e 18 be 3c
       -0.015059314 -0.012918095 -0.01517091 0.023204949
000020 85 e4 21 bc aa ce 78 3b 8a 73 a6 bd a9 b0 35 3d
       -0.009881143 0.0037964978 -0.08127506 0.04435793
000030 00 19 68 3a 0d 01 a5 3b 68 11 1e 3d ca 33 2c 3c
       0.0008853823 0.0050355257 0.03859082 0.010510394
000040 fe e0 87 3d d1 c9 65 bd 2f 30 c5 bd 5d 58 51 bd
       0.06634711 -0.05610067 -0.09628331 -0.05110966
000050 30 3e 5c bc 2c 62 5e 3d 77 26 81 3d 83 bd 7c bc
       -0.013442561 0.054292843 0.06306165 -0.0154260425
000060 13 f7 23 bd e9 d1 31 3c be 78 0a 3d 0b 07 e3 bd
       -0.04003055 0.010853269 0.033806555 -0.11085328
000070 71 02 b4 3d c3 44 61 bc db 5e e3 3c f3 29 2c 3d
       0.08789528 -0.013749304 0.027755192 0.042032193
000080 a7 01 90 bd 9b d6 a5 bd ba 5a bb bc 46 51 c0 bc
       -0.07031565 -0.08097573 -0.02287041 -0.023476254
000090 7c 6e 5f bd 9b 3c 38 bd 4c 94 5f 3d 1e 4b 44 3d
       -0.054548725 -0.044979673 0.054584786 0.0479232
0000a0 80 f9 56 3d 0f 61 04 bd dd 67 f4 bc f2 04 17 3d
       0.052484035 -0.032319125 -0.029834682 0.03686995
0000b0 08 d5 a0 bc c9 60 a1 3b 07 e5 da bd c2 51 04 3d
       -0.019632831 0.004924868 -0.10688215 0.032304533
0000c0 4d 79 a8 bd e2 bc 8e bd 18 2a 2f 3d e1 4c 31 3d
       -0.08226261 -0.0696962 0.042764753 0.043286208
0000d0 47 8a 9f bd a8 d3 29 bd c4 df 3e 3d d5 e5 ad bd
       -0.07790046 -0.041461617 0.04660012 -0.084911026
0000e0 88 1b b9 bc a0 02 07 bc 9a aa 71 bc 27 aa 82 3d
       -0.022596136 -0.008240372 -0.014750147 0.0638011
0000f0 a8 f5 e8 bb 5c a2 89 bc b1 3e 21 3d fa 79 6e bd
       -0.0071093626 -0.016801052 0.039366428 -0.058221795
000100 a8 00 71 bc 00 3a c5 bd 99 29 7b bd 90 b5 93 3c
       -0.014709629 -0.09630203 -0.061318967 0.018030912
000110 f8 c8 71 3d 49 dd 87 bd 32 f1 5e 3c 19 62 2f bb
       0.05902955 -0.06634004 0.01360731 -0.0026761352
000120 d4 c7 a9 3c 2f a6 b1 bc 9d b0 a4 3d 8e 98 d7 3c
       0.020725168 -0.021685688 0.08041499 0.02631786
000130 23 a2 64 3d 2a 07 4e bb 81 39 b1 3d 04 9e e0 bc
       0.055818688 -0.0031437376 0.08653546 -0.027419098
000140 2d f5 35 bd 12 07 c5 ba 9a e0 99 bd 26 7a 13 3c
       -0.04442327 -0.0015032014 -0.075135425 0.00900129
000150 73 63 5a 3d ed 3b ab 3c 07 1c aa bd df 5c ae 3d
       0.0533175 0.020902598 -0.08306127 0.085138075
000160 49 c0 1f 3c ed fa aa 3c 5c e2 25 bd 6c 47 0b bd
       0.009750434 0.020871604 -0.040499076 -0.03400366
000170 97 8c af 3d bd fb b3 3d 55 67 96 bd e0 a0 a5 bd
       0.08571737 0.0878825 -0.07343928 -0.08087325
000180 ce 2e c6 bd c0 02 19 bd dd 5b 9a bd 44 84 71 b9
       -0.09676896 -0.03735614 -0.07537053 -0.00023032824
000190 28 62 88 3d ec 27 a2 bd a0 3f 7c bd ed a1 47 bd
       0.06659347 -0.07917771 -0.061584115 -0.04873841
0001a0 73 8f c5 3c 19 ae f2 bd ba e4 91 3d 05 b8 c2 3d
       0.024116253 -0.11849613 0.07123704 0.09507755
0001b0 c1 8a 4c bc bd b7 85 bd 3f 01 aa 3c eb 59 28 3b
       -0.012484253 -0.06529186 0.020752547 0.002568836
0001c0 3b e9 1e bd 6d 9d 99 3b a0 61 3a bd 9b 88 a3 bd
       -0.038796645 0.004687956 -0.04550326 -0.0798504
0001d0 72 0d fa 3b d1 6d a0 3d 22 2a ab bc de 82 95 bd
       0.0076309973 0.07833446 -0.020894114 -0.073003516
0001e0 8d 12 c4 bc 39 f3 81 bd 72 c2 bc 3b b2 ce b4 3b
       -0.023934627 -0.06345219 0.0057604844 0.005517804
0001f0 dd 89 1e bd 07 d5 ca bc a3 52 f2 bc 96 45 56 3d
       -0.038705695 -0.024759782 -0.02958042 0.052312456
000200 d5 a5 59 bd d8 8d d1 3c cb 56 c3 3d 05 98 1e 3d
       -0.053136665 0.025580332 0.09538039 0.038719196
000210 f4 e3 61 bb 01 cd 80 bd 62 03 d4 bd df 9b d8 3d
       -0.0034468146 -0.062891014 -0.10352208 0.10576605
000220 10 e7 45 3d db 50 d9 3c 51 db 0b 3d bd d0 c6 3b
       0.04831606 0.026527813 0.034144703 0.006067364
000230 a3 cd cf bd 90 2b b9 bc bc b9 51 bc ff 41 cf 3c
       -0.10146644 -0.02260378 -0.01280063 0.025300024
000240 2f 43 bf 3b ed 5d fb 3c 72 c1 f4 3c 5d 23 12 3e
       0.0058368663 0.030684436 0.029877398 0.14271303
000250 97 e1 0b bd 67 9f 70 bd b4 61 b7 bd 12 8d 12 bd
       -0.034150686 -0.058745768 -0.08954182 -0.035779066
000260 a5 fd 02 be 04 5a c2 3d 44 cd 3e bc 69 7d b5 bd
       -0.1279207 0.09489825 -0.011645619 -0.08861811
000270 5f de 80 bd 49 39 06 3e 55 78 5a bd 90 1d f2 bc
       -0.06292414 0.1310779 -0.053337414 -0.029555112
000280 5c fd 2e bd ed 6c ac bd b6 4e 92 bc 02 ae 02 be
       -0.04272209 -0.084192134 -0.017859798 -0.12761691
000290 c5 bc ed 3d 2b 69 35 bd 8a 00 f4 3c bc ed 62 3d
       0.116082706 -0.04428975 0.029785413 0.055402502
0002a0 e7 56 97 3d 41 f9 cb bd 00 99 a6 bd 57 4f 13 3e
       0.07389622 -0.09959651 -0.08134651 0.14385734
0002b0 da 61 b1 3d ac fa 4b 3e ad ca 1c bd eb 9b fb 3c
       0.08661242 0.19919842 -0.038279224 0.030713996
0002c0 ae 99 1b bc 57 db 4d 3e 43 7d 05 3e b2 da 07 3c
       -0.009497089 0.20103203 0.13036065 0.008291887
0002d0 14 cd 11 bb 09 08 a0 3c 00 47 3d bb 6e 7d e8 bc
       -0.002224748 0.019535081 -0.002888143 -0.028380122
0002e0 31 53 90 3d 37 a4 06 3d 20 dc ed 3d 19 58 e1 3c
       0.070471175 0.03287145 0.11614251 0.027507829
0002f0 8e 05 c1 3c c4 4c 37 3d cb b2 12 3d a7 a0 61 3c
       0.023562219 0.044750944 0.03581504 0.013771213
000300 86 aa 57 3d 26 01 d0 bb 77 17 4d 3c 66 65 20 3d
       0.05265286 -0.006347793 0.0125178015 0.0391592
000310 96 3b b9 3d ff f1 f5 bd b9 14 b6 bd d0 49 03 3e
       0.09044568 -0.12009048 -0.08890671 0.12821126
000320 71 ca 9e bd b5 55 97 bd c9 19 11 3d b2 0a 91 3d
       -0.077534564 -0.07389394 0.03542498 0.07082118
000330 6a 62 92 bc d0 df d4 3d 7a a1 32 ba fc a4 b5 bc
       -0.017869193 0.10394251 -0.0006814223 -0.022173397
000340 17 00 cd bd 48 18 fb bd 0e 28 84 3c c1 d4 8b bd
       -0.10009783 -0.12260491 0.01613238 -0.06827689
000350 c6 f0 18 bd 64 c3 08 be c9 5c 1c be 0c 9e 7c bc
       -0.037338994 -0.13355786 -0.1526977 -0.015418541
000360 aa 8a 3a bd e5 2d 48 bd 45 d8 88 bc 51 08 9f bd
       -0.045542397 -0.048871893 -0.016704688 -0.07765258
000370 fc 66 26 3d a8 22 98 bc aa 28 a2 3d 6c 22 00 bb
       0.040625557 -0.018571213 0.07917912 -0.0019551767
000380 72 71 8e bb 44 eb 37 3e ec 2e ab 3d da 0a 9b bd
       -0.00434702 0.1796084 0.08358559 -0.07570429
000390 96 b6 ca bc d1 b1 ac 3d 3d 7a 87 3c 06 1a f8 3b
       -0.024745267 0.08432353 0.01653778 0.0075714616
0003a0 7a 05 6a bb af 94 e5 bc 01 04 3a bd b4 fe 4d bd
       -0.003570883 -0.028025 -0.045413975 -0.050291732
0003b0 27 51 03 be 6c 27 f8 bd c9 63 ec bd d8 ee 32 bd
       -0.12823926 -0.12116894 -0.1154247 -0.04368481
0003c0 22 73 c2 3d 31 d4 98 bd e9 cb dc 3c 62 ad 29 3e
       0.09494616 -0.07462347 0.0269527 0.16570047
0003d0 79 07 0c 3e 2c db 8e bd b3 d9 bf bb 7f a1 b5 bd
       0.13674726 -0.069753975 -0.005854809 -0.088686936
0003e0 22 15 0f bd d3 69 99 bc c9 a9 0c 3e 58 dc 2c bd
       -0.034932263 -0.018727219 0.13736643 -0.042202324
0003f0 73 cc d2 3d e0 e5 a3 bd 85 c3 20 bd 25 0e 02 3e
       0.10292902 -0.080028296 -0.039248962 0.12700708

policy1.bias f4 [5]
000000 5d 8b ca 3c a3 58 50 bd 21 4c 9d 3c c2 34 92 3d
       0.024724657 -0.05086578 0.01920134 0.07138969
000010 cb 3b 3f 3d
       0.046687882

policy2.weight f4 [5, 128]
000000 c8 11 be bd ef 30 b0 3d 70 38 06 bd 88 5e 24 bd
       -0.09280735 0.08603083 -0.032768667 -0.040129215
000010 5f 23 1d 3d be 2b 15 bd 36 63 af 3d 97 13 4c 3c
       0.03836381 -0.03641867 0.08563845 0.012455842
000020 09 d2 c9 bc 08 a0 91 bc d5 6e 89 ba 49 70 bf 3b
       -0.024636285 -0.017776504 -0.0010485301 0.005842243
000030 1c 74 cf bd 12 2a 05 3d 9a 53 aa bd 24 8b 8e 3b
       -0.10129568 0.032510825 -0.08316727 0.004350083
000040 7a df 73 bd b7 4e 94 3d 48 ef 54 bd bd bf c7 bc
       -0.059539296 0.07241576 -0.05198601 -0.02438342
000050 9a f4 70 3b 38 39 9b bd d1 9f 2e 3d 11 62 be bd
       0.0036766888 -0.07579273 0.04263288 -0.092960484
000060 21 cf ad bd a1 b4 f3 3b 11 cb 80 b9 f1 6f 7c bc
       -0.08486772 0.007437304 -0.0002456536 -0.015407548
000070 47 0d af 3c 4c 61 a1 bc a2 56 00 bc bd 7a 33 3c
       0.021368636 -0.019699715 -0.007833155 0.010954556
000080 4a 4b cc bc b0 e9 69 3d 6a 4b c5 3c 71 de de bd
       -0.024938244 0.057107627 0.024083812 -0.10882271
000090 c3 80 b5 3c 17 b5 ba 3c e7 59 de bc 32 cc 23 3d
       0.022156125 0.022791428 -0.027142478 0.039989658
0000a0 c6 7b 96 3d a2 40 12 bd 1c 55 4f 3d ef db 5c 3d
       0.07347827 -0.03570617 0.050618276 0.053920683
0000b0 17 4b ae bb ce f9 9b 3d 0b c5 20 3d e5 0d 61 3d
       -0.00531901 0.07616006 0.039250415 0.05494489
0000c0 64 4c 8e 3a b6 46 dc 3d b1 be f5 bc e1 b4 56 3d
       0.0010856506 0.107556745 -0.029998155 0.052418593
0000d0 10 b2 8d bd 24 4e b0 3d ce d8 6e 3b 5e 30 54 3d
       -0.06918728 0.08608654 0.0036445144 0.05180394
0000e0 d4 b4 e1 bc 5f 25 8b bc e8 98 21 bd 62 80 9f bd
       -0.027552046 -0.016985593 -0.039452463 -0.07788159
0000f0 3e 2a 82 3c 59 3d 29 bd 0b 56 b7 bb 71 38 58 3d
       0.015889283 -0.04131827 -0.005594974 0.0527882
000100 9b 50 0c 3d 96 bd 8d bd 00 5f 95 3d 05 62 19 3c
       0.03425656 -0.06920926 0.072935104 0.009361749
000110 97 be bd 3d 54 a3 dc bd 87 45 87 3d 2a 55 b2 3d
       0.09264868 -0.1077334 0.06605058 0.0870765
000120 f6 35 cc 3c 47 b9 85 3c d8 4e 20 bd df 90 ee 3c
       0.024928074 0.016323699 -0.03913769 0.029121814
000130 77 11 44 bc 19 27 c5 3d 27 c5 89 bd 99 f0 11 bd
       -0.011967055 0.09626598 -0.06727057 -0.035629842
000140 38 a4 85 bd 3c 53 a9 bd 7a 83 01 3e f6 ee c2 bd
       -0.06525463 -0.08267829 0.1264781 -0.095182344
000150 99 d1 99 3d ec 64 99 bd 05 5f 13 bc 5a 94 07 3d
       0.07510681 -0.074899524 -0.008994822 0.033100463
000160 d2 cb 76 3d cf 08 1a 3d 08 78 8c 3d 73 23 80 3d
       0.060252972 0.037606057 0.06858832 0.062567614
000170 31 e1 5d 3d 78 ee 91 3c 3e 5d c0 3c d4 b4 1c bc
       0.054169837 0.017813906 0.023481961 -0.009564597
000180 1f aa 8e 3d f5 d0 89 3d 9f 0d 13 bd e9 22 df bc
       0.06966042 0.067293085 -0.035901662 -0.027238326
000190 cb 6b 92 bd 77 30 95 3d 00 02 30 bd 22 53 5c bd
       -0.07149466 0.072846346 -0.042970657 -0.05379022
0001a0 4c a6 94 3d f0 87 36 3d 0b fb 08 3d 5b 7b f4 bd
       0.07258281 0.044563234 0.03344254 -0.11937591
0001b0 e8 d3 16 3d fa 49 58 bc 25 f3 96 bd 13 89 58 3d
       0.036823183 -0.013201231 -0.07370595 0.0528651
0001c0 66 88 a9 bc 2c d6 01 3d ac 5d 6a bd ac da 22 bd
       -0.020694923 0.03169839 -0.05721824 -0.039759323
0001d0 4a ad 6e 3c 07 51 68 3d bf 86 00 bc 24 0c bb bd
       0.0145676825 0.0567179 -0.007844626 -0.09133175
0001e0 4c 06 70 bd 0a b9 7c bd 22 09 9f 3d c2 42 8c 3b
       -0.058599755 -0.061699905 0.07765414 0.004280419
0001f0 ab 31 92 3d 48 a7 6b 3d 6c a1 a3 3d 7b f8 8c 3d
       0.0713838 0.05753258 0.07989773 0.068833314
000200 ae f1 33 bd 88 53 7a 3c 4d 80 92 3d ec 66 9a bd
       -0.043931656 0.015278704 0.07153378 -0.07539162
000210 34 94 fe 3c 09 43 81 bc 21 be 92 bd 52 5d a3 bb
       0.031076528 -0.015779035 -0.071651705 -0.00498549
000220 8e 38 9d bd be f1 2a bd 67 c0 9f 3d 5a 1c cb 3c
       -0.076768026 -0.04173445 0.0780037 0.024793793
000230 c2 62 6b bc 0e 25 a1 3d 04 d2 d1 bc 5e 18 b8 bc
       -0.014366807 0.07868396 -0.025612839 -0.022472557
000240 f3 d3 4f bd d0 75 73 bb 03 b3 cc 3d 66 7e d4 3b
       -0.05073924 -0.003714908 0.09995081 0.0064847944
000250 b8 a4 69 bd b2 80 12 bd a8 eb 77 bd 44 af bd 3d
       -0.057041854 -0.035767265 -0.060527474 0.09261945
000260 b8 e7 ba bc 2c 58 aa 3b 3b 0a 80 3d 9e 49 19 bd
       -0.02281557 0.005198499 0.06251951 -0.037423722
000270 fe 32 48 3d a6 f4 f4 bb b7 5d d9 bc cf 75 2b 3d
       0.048876755 -0.0074754534 -0.026533945 0.041860398
000280 60 8b 03 bd 4f a6 73 3d ca f4 d9 bd d6 47 c0 3c
       -0.03211534 0.059484776 -0.10642393 0.023471754
000290 bb 9c 58 bc 04 ef b6 3d 22 e2 73 bd ce 93 84 bd
       -0.013220961 0.08932307 -0.05954183 -0.06473504
0002a0 dc a4 51 bd 42 65 db 3b d2 7c 42 3d a2 bc 93 bd
       -0.051182613 0.0066954205 0.04748232 -0.07213713
0002b0 b2 60 8d 3d 06 ee 6a 3c 9d be 6e 3d d7 15 7f 3d
       0.06903209 0.014338976 0.05828725 0.062276687
0002c0 d0 a7 a6 3c b9 f8 b2 3c ea a7 87 bd 32 f0 25 bb
       0.020343691 0.021847116 -0.06623824 -0.002532017
0002d0 69 58 a3 3d 86 60 6e bd bf 29 9c bc 96 79 a8 bd
       0.07975847 -0.05819752 -0.019062875 -0.08226316
0002e0 a6 aa 37 3c 6f 2d a1 3c d2 88 c3 3d b7 15 c6 3d
       0.011210119 0.019674985 0.09547581 0.096721105
0002f0 c1 ff 79 3c 89 0c e1 3c ba 6b c1 bc d9 72 4c 3c
       0.01525873 0.027471798 -0.023610938 0.012478554
000300 79 26 04 bd 9a 6f e2 3d ea d1 49 bd 0f cb c6 3d
       -0.032263253 0.110564426 -0.049272455 0.09706699
000310 13 cc 93 bd be f0 bf 3c 08 86 a4 3b b7 40 85 bd
       -0.072166584 0.023430225 0.0050208606 -0.06506484
000320 b6 db 37 bd aa 13 8b bd 39 a4 35 3d 18 f8 c5 3d
       -0.044887267 -0.0679086 0.044346068 0.09666461
000330 9d ee fd 3c c0 af 29 3d 1d 5f 49 bd f3 74 6c bb
       0.030997569 0.041427374 -0.049162973 -0.003608045
000340 0b ce 84 3d a8 2e 35 bd e2 41 8f 3d c1 6c a9 bd
       0.06484612 -0.044233948 0.06994988 -0.08272696
000350 47 cd 86 bd 71 02 12 bd 77 d3 42 3c 85 71 df bc
       -0.06582122 -0.03564686 0.011891237 -0.02727581
000360 b7 40 1d bd 10 7a c7 3d 3b 0a 95 bd 9d 9b 76 bd
       -0.038391795 0.097400784 -0.07277342 -0.060207
000370 79 b5 df 3c 5f 65 c2 3d 2c ea a8 bd ee 5e 88 3d
       0.027308213 0.09491991 -0.0824779 0.066587314
000380 ec 96 7f 3d 20 ff 06 3d f1 ac 1a 3d 4e 98 a8 bd
       0.06239979 0.03295815 0.037762586 -0.08232175
000390 9a 5b 66 3d d3 87 cd bc 26 fb 9f bd ee 0e 85 bd
       0.0562397 -0.02508918 -0.07811575 -0.06496988
0003a0 67 4a d2 3a 01 39 e4 3c a2 93 6b 3c 2c 20 3b bd
       0.0016043902 0.027859213 0.01437846 -0.04568498
0003b0 c1 a1 cf 3c ab c1 ea 3c e1 85 6a 3d e5 3d 97 bd
       0.025345685 0.028656801 0.057256583 -0.07384852
0003c0 60 68 78 3d 15 e3 91 bc d0 47 45 bd c6 e9 40 3d
       0.060646415 -0.017808476 -0.04816419 0.047097944
0003d0 1c 7e 65 bd f8 93 19 3d 6e 9c 85 bd 8f 2a 41 3d
       -0.05602847 0.03749463 -0.06523977 0.047159728
0003e0 7d 64 96 3d 72 ab 93 3d 66 21 38 3d e2 b9 78 bb
       0.07343385 0.07210435 0.044953726 -0.0037952592
0003f0 36 16 3a bd c5 87 8e 3d 3f f9 9a bc a5 ae 4e bd
       -0.04543134 0.0695949 -0.018917678 -0.050459523

policy2.bias f4 [5]
000000 00 b9 b1 3d 17 f8 b7 bb 1c 59 93 3c de 40 cd 3d
       0.08677864 -0.0056142914 0.017986827 0.10022138
000010 6f e8 87 bb
       -0.0041475813

value.weight f4 [1, 128]
000000 24 3c 30 bd 4c fb a2 bd e8 c8 e7 3d 7a e0 e7 3a
       -0.043026105 -0.07958087 0.11317617 0.0017690801
000010 6d e4 9c 3d e7 39 e2 3c 5d e2 83 3d 4e ae 3c 3d
       0.07660756 0.0276155 0.0643966 0.046064667
000020 c1 b0 05 be 02 26 c0 bd 64 52 ec 3d 04 7e 44 3d
       -0.13055708 -0.093822494 0.11539152 0.04797174
000030 1b 91 34 3b a3 70 37 be 4d c3 ca bd 37 b6 f8 3d
       0.002755231 -0.17914061 -0.09900532 0.1214413
000040 4e f1 02 3e 62 8c b8 bd 55 6d c6 bd d3 6f 2c be
       0.12787363 -0.09011151 -0.09688822 -0.16839533
000050 31 16 53 3d e9 d9 6f 3d 74 0f 07 3e b5 ab b4 3c
       0.051534835 0.058557425 0.13189489 0.022054533
000060 1d 87 28 bd 63 bd 11 be 62 76 bb 3d ad 9b f2 bd
       -0.04114448 -0.14232402 0.09153439 -0.11846099
000070 14 ea 7b bd f3 57 86 3d 3c 51 cb 3d e5 23 27 be
       -0.06150253 0.06559744 0.099276036 -0.16322286
000080 21 a8 f9 bb 66 dd e1 bc 47 c2 1f 3c a3 ad 2b be
       -0.0076189195 -0.027571391 0.009750909 -0.16765456
000090 9c 36 e9 bd 88 bb 09 be 02 39 8c 3c 21 5b df bc
       -0.11387369 -0.13450444 0.017117027 -0.027265133
0000a0 9e f0 b7 bc 39 0a 68 3d ee 08 9f 3a 28 fe 6d 3d
       -0.022453602 0.056650374 0.0012133399 0.05810371
0000b0 55 bc 68 3d f4 61 d9 3b ca 22 0e be 52 88 b2 bd
       0.056820232 0.0066339914 -0.13880458 -0.08717407
0000c0 f8 73 a4 bc f9 4a e9 bd 72 95 0d be bb 62 9e 3d
       -0.02007483 -0.11391253 -0.1382654 0.07733675
0000d0 e7 c0 10 be 2d 0d ec bc f4 52 00 be 14 3b 1d 3d
       -0.14136086 -0.028814876 -0.12531644 0.03838642
0000e0 50 4b 37 be c2 64 2f 3e 1f 30 fc bd 4c 55 02 be
       -0.17899823 0.1712828 -0.12313866 -0.1272785
0000f0 33 ae b4 bd 01 78 5a bd 4d 70 ac 3c 93 40 d3 3d
       -0.08822288 -0.0533371 0.021049643 0.10315051
000100 c4 5c 19 bd 65 05 22 be ca f5 e8 3d 68 63 28 bd
       -0.037441984 -0.1582237 0.113750055 -0.041110426
000110 e9 51 a7 3d ce 52 0e 3d 6f dd 11 3e fe ff 81 3d
       0.0816992 0.034746937 0.14244626 0.06347655
000120 d3 b0 31 bc ff 2c b6 bc 9d fc c0 3d 88 b4 fd bc
       -0.010845381 -0.022238253 0.09423182 -0.030969873
000130 f1 b1 12 3e bc 44 17 bb 09 c4 87 3d 27 88 01 3d
       0.14325692 -0.002308174 0.066291876 0.031623986
000140 c7 5b 41 b9 7b 13 99 3c 28 fb d1 3c 75 f6 05 be
       -0.00018440104 0.018686047 0.025632456 -0.13082297
000150 d0 65 6b bc a2 da aa bc 58 54 e4 bd 18 f7 8e bd
       -0.014367536 -0.020856205 -0.111489 -0.06980723
000160 cd 6e 00 3d aa eb fa bd 4b ff e9 bd 29 66 59 3d
       0.031355668 -0.122519806 -0.114256464 0.053075943
000170 f5 a3 0a 3d e8 bf c3 bc 5a 8f 5b bd 9c 48 82 3d
       0.033847768 -0.023895219 -0.053603508 0.063615054
000180 22 9c 8b 3d ef a5 55 bd 2f af 85 3d a3 1d a9 3c
       0.06816889 -0.0521602 0.06527554 0.020644015
000190 59 31 94 3d 05 50 fb 3c 70 d6 a5 bc df cb 50 bb
       0.07235975 0.030677805 -0.020243853 -0.0031859798
0001a0 4f 98 b4 3c 93 8d 9c bd 50 a5 ce 3d c2 3d f4 bd
       0.022045283 -0.07644191 0.100901246 -0.11925842
0001b0 53 e8 4d bd 4f 41 d7 3d d4 d9 76 bd 64 91 8d bd
       -0.05027039 0.105105035 -0.06026633 -0.06912497
0001c0 30 4b 4a be 5b 1a 16 3e b7 32 86 bc de 4a bb bd
       -0.19755244 0.14658491 -0.016381605 -0.09145139
0001d0 ea 19 22 be df 85 b8 3c db e9 50 bd 99 6c 28 3e
       -0.15830198 0.022524772 -0.051004272 0.16447677
0001e0 58 00 d3 bd 73 c7 c8 bd 2d b8 53 3d 6b 2a 83 bd
       -0.103028 -0.09803667 0.051689316 -0.06404575
0001f0 9b ad 17 be f1 46 fe 3d fd c5 ff bd 3c 5a 6f 3d
       -0.14812319 0.12415875 -0.12488935 0.058435664

lstm.weight_ih_l0 f4 [512, 28]
000000 ba da 94 39 83 dd 29 bd 04 38 4e 3c be b9 9c 3c
       0.00028391724 -0.041471016 0.012586597 0.019131538
000010 43 77 b6 3d 1b 79 8d 3d a7 7a 49 bd 03 28 2f bd
       0.08909466 0.06907865 -0.049189236 -0.042762768
000020 67 8e 9e 3c 75 c7 00 be 06 36 ab 3d 41 64 bd 3c
       0.019355012 -0.12576087 0.083599135 0.023119094
000030 e5 d5 6d 3c 99 09 31 bd 3b d9 c6 bd 15 d8 c7 3d
       0.014516328 -0.043222044 -0.09709402 0.09758011
000040 8f 13 b6 3d ac c5 eb bc 2f 56 43 bc cc 13 ca bb
       0.08890449 -0.02878078 -0.011922403 -0.0061669108
000050 bb 74 d1 3b 66 45 a7 bd 7d 69 e4 3d 7e 65 a6 3d
       0.006392089 -0.081675336 0.11152933 0.08124827
000060 80 cc f6 3c 70 ca 55 bd 8e 8c bf bd b4 e4 02 3e
       0.03012681 -0.052195013 -0.093529806 0.12782556
000070 39 46 19 bd 75 81 2b bd c1 cc f0 bb ab a7 c7 3d
       -0.037420485 -0.041871507 -0.0073486273 0.09748777
000080 8b 65 0a 3c 9a 34 ce bc 56 db b1 bd e7 c7 43 3d
       0.008447061 -0.025171567 -0.08684413 0.047798064
000090 b5 ba c2 3d f9 45 21 bc 7e 48 90 3d 4b 9f b7 3c
       0.09508268 -0.009843343 0.07045077 0.022414824
0000a0 1b b9 f5 bc 06 08 c9 3a a8 6a 07 3e 85 8f e4 bd
       -0.029995492 0.0015337474 0.1322428 -0.11160187
0000b0 bb 6a 0a 3e 56 cc 86 bd 49 13 a5 3d c3 19 bc 3d
       0.13517277 -0.06581943 0.08060319 0.09184601
0000c0 e8 7b e2 bc 00 75 ca 3c ec 8c 36 3d 72 fa bd bc
       -0.027646974 0.024713993 0.044567987 -0.02319071
0000d0 46 5e e8 bd 8e 62 a4 3d ae 3d 43 3e 88 46 6c 3d
       -0.11346106 0.0802661 0.19066498 0.05768445
0000e0 3b c2 0a 3d d1 2d f3 3b f0 97 67 bd 8a 1d b8 3d
       0.03387664 0.007421233 -0.056541383 0.08990009
0000f0 ce db cd 3d 22 a2 e6 bc e5 59 86 3c b1 86 f4 3c
       0.1005169 -0.028153483 0.016400287 0.029849382
000100 0f c8 3e 3c 84 ed a2 bb 77 a9 01 3e 82 75 1d bd
       0.011644377 -0.0049721617 0.12662302 -0.038442142
000110 fd d1 e8 ba 37 ba 96 3d f3 ea 32 be 22 f2 d6 3d
       -0.0017762777 0.073597364 -0.17472439 0.10495402
000120 c7 c8 8d 3d 51 48 07 3e 7e 21 cd bb 5c 54 65 3c
       0.06923061 0.1321118 -0.006260096 0.013997164
000130 87 0e ea 3d 42 84 b9 3c b0 d6 c7 3c 51 92 b4 3e
       0.11428552 0.022646073 0.024394363 0.3526788
000140 6e 92 4f 3d f7 40 02 3e 20 20 4a be c2 2e d2 3d
       0.050676756 0.12720095 -0.19738817 0.102628246
000150 b9 aa dd 3d 08 d1 5d bc 44 44 35 be d8 c0 85 bd
       0.108235784 -0.013538606 -0.17701823 -0.06530923
000160 60 0e 96 bd b4 a5 1b bd 10 79 bd bc e4 8d 36 3d
       -0.073269606 -0.037999824 -0.023129016 0.04456891
000170 3d 48 a4 3e 07 4b 6e be 5b 98 31 bb d7 21 5e 3d
       0.32086363 -0.23270808 -0.0027098868 0.05423149
000180 78 70 50 bd 63 6b ff bd 79 63 7f bd 86 0a 5a bb
       -0.05088851 -0.12471654 -0.062350724 -0.0033270433
000190 ad 43 ab 3c 67 2d c0 bc 4c ad 5b 3d d9 1c e1 bc
       0.020906294 -0.02345915 0.053632066 -0.027479576
0001a0 21 cb 9b bc 96 4a 7b 3d 09 6c 0b 3d 23 1b 84 bd
       -0.019017758 0.061350428 0.034038577 -0.064504884
0001b0 08 4b cd bd ce 21 d9 3d 0b 34 15 bd 05 e3 de 3d
       -0.10024077 0.10602151 -0.036426585 0.10883144
0001c0 e9 0a 37 3d 59 e5 a2 3d 08 cb 59 3d e2 ba 2e bd
       0.04468814 0.07953901 0.05317214 -0.042658694
0001d0 c6 c9 a1 bd 65 5d d2 bd c1 8e b4 bd f4 ff 48 bd
       -0.07899813 -0.1027172 -0.08816291 -0.04907222
0001e0 59 3f 53 3c 71 f0 28 3e 76 67 5e bd bf 49 af bc
       0.012893521 0.16497971 -0.054297887 -0.02139747
0001f0 2a b1 7c 3d 05 bb b5 3c bd c9 ec 3c 26 f4 96 bd
       0.061692394 0.022183904 0.02890479 -0.07370786
000200 21 75 9c 3d ff 8c 1f be c4 c4 a7 3c 06 f3 b9 3c
       0.07639528 -0.1558113 0.020479567 0.02269889
000210 0d 50 75 bb 1e 8b 95 bd 96 20 1a bd fd f0 c7 3d
       -0.0037431747 -0.07301925 -0.037628733 0.09762762
000220 5d e8 20 3d 39 0b c2 bd ae c0 05 bb ed 7e 06 3d
       0.0392841 -0.09474797 -0.0020409035 0.03283589
000230 bd 3d 46 bd 6e 59 f1 bc f7 62 4b bd af 72 fb 3d
       -0.048398722 -0.029461589 -0.049654927 0.122777335
000240 47 80 45 3d 79 34 f3 3b 1c 2c 71 3d ee bc d5 bc
       0.048218038 0.0074220267 0.058879957 -0.026091065
000250 25 3b 97 bc 38 1c 17 be 15 08 52 3d 3e 80 6f 3d
       -0.01846082 -0.14756858 0.05127724 0.05847191
000260 22 8b 22 3c 98 7c 1d be 6f d7 38 3e 9f 38 34 bb
       0.009920867 -0.1537956 0.18050931 -0.002749957
000270 95 14 e6 3b 67 ac f7 3d 98 28 d7 3d c2 bf cb 3c
       0.0070214965 0.1209343 0.105057895 0.02487171
000280 b7 55 e5 3c 0d cf 90 bc 95 9b e5 3d 66 28 56 3c
       0.027994974 -0.017676855 0.112113155 0.013071155
000290 0b f2 34 3d b8 f6 ac bd 2d 9b 32 3e d1 f6 c1 3a
       0.044176143 -0.08445495 0.17442007 0.0014798288
0002a0 8b 0b c0 bd cb 2a 13 3d ea 05 1f ba d3 e9 87 bd
       -0.09377202 0.035929482 -0.000606625 -0.06636395
0002b0 9a 11 19 be ec 15 18 3d 58 22 6d 3c e5 bb 97 3c
       -0.1494812 0.03713028 0.01447352 0.018522212
0002c0 b7 de a8 bc af e9 21 3d ca 49 ef 3c 8c 2a db 3d
       -0.020614011 0.0395295 0.02920999 0.107014745
0002d0 cc b5 78 bc a9 b2 26 3d 75 e7 44 bd 3d 69 1e 3e
       -0.0151800625 0.040697727 -0.048072297 0.15469833
0002e0 19 1c 78 bd f4 15 af 3d 1a 93 a7 3d 70 b3 8f bb
       -0.06057367 0.08549109 0.08182354 -0.0043854043
0002f0 bc a5 9d 3d d3 6f 55 bc c8 c7 99 3d be 1f ab bd
       0.07697627 -0.013027149 0.075088084 -0.08355664
000300 8b aa 5d 3e b4 c8 17 be 6a b1 72 3e 7e ca 5e 3c
       0.21647088 -0.14822656 0.2370049 0.013598083
000310 79 a9 3f bd b0 53 10 3e a0 ec b6 bc 81 2b 6e 3d
       -0.04679248 0.14094424 -0.022329628 0.058146957
000320 6a 06 18 3e 8c 68 bd bd 39 50 10 bc 05 48 44 3d
       0.14846197 -0.09248456 -0.008808189 0.047920246
000330 f5 22 d8 3d 15 e2 d0 bb a3 18 99 bd 76 84 1c 3c
       0.105535425 -0.0063746073 -0.07475402 0.0095530655
000340 33 f1 b7 3c 94 a3 a0 3d 72 af 00 3d 9b 2b 65 3d
       0.02245388 0.078437 0.031417318 0.05594979
000350 96 13 92 3d 92 ee 64 bc ae af 36 3d fd 54 55 3d
       0.07132642 -0.013972895 0.044601135 0.052083004
000360 c7 c0 f3 3d bf c1 85 3c de ad 80 bd 0d 05 44 3e
       0.11902004 0.016327737 -0.062831625 0.19142552
000370 bf 65 93 3d 88 d2 a4 3c a0 20 1b be f5 a2 7c 3d
       0.07197141 0.02011992 -0.15149164 0.061678845
000380 5a ce fb 3c a6 f2 4d 3d ab e6 33 3c fb 37 7f bd
       0.030738045 0.050280236 0.0109802885 -0.062309247
000390 fe 26 1e 3d 6c 69 c2 bc 76 7e 72 3c dc 29 d3 3d
       0.038611405 -0.02373191 0.014800658 0.103107184
0003a0 0e 89 b4 bd 0e 4e e9 3d 71 cd 35 3e 45 b4 aa 3d
       -0.088152036 0.11391841 0.17754151 0.08335165
0003b0 3b 16 04 3e 17 d7 97 bd 2b 7d 37 3c 39 58 6c 3e
       0.12899105 -0.07414072 0.011199276 0.2308053
0003c0 dd 18 a3 3c 9c d8 c7 3c 99 8b 53 ba 93 5e 91 3d
       0.019909317 0.02439528 -0.0008069813 0.07098117
0003d0 18 7f 03 3d 94 0e 7c 3d be 2b 98 3d 34 9e ae bd
       0.032103628 0.06153734 0.07430218 -0.085262686
0003e0 b9 03 41 3e ff fb 26 3e 70 5f 58 3b a9 bc 7a bd
       0.18849076 0.16307066 0.003301587 -0.061215077
0003f0 bd 3e 1a 3c 17 e1 6e bd 33 a0 22 be eb c2 0a be
       0.009414372 -0.05832013 -0.15881424 -0.13550918
